Random Seed:  1037
MobileNet2(
  (activation): ReLU6(inplace)
  (compression_layer): CompressionLayer()
  (conv1): Conv2d(3, 32, kernel_size=(3, 3), stride=(2, 2), padding=(1, 1), bias=False)
  (bn1): BatchNorm2d(32, eps=1e-05, momentum=0.1, affine=True, track_running_stats=True)
  (bottlenecks): Sequential(
    (Bottlenecks_0): Sequential(
      (LinearBottleneck0_0): LinearBottleneck(
        (conv1): Conv2d(32, 32, kernel_size=(1, 1), stride=(1, 1), bias=False)
        (bn1): BatchNorm2d(32, eps=1e-05, momentum=0.1, affine=True, track_running_stats=True)
        (conv2): Conv2d(32, 32, kernel_size=(3, 3), stride=(1, 1), padding=(1, 1), groups=32, bias=False)
        (bn2): BatchNorm2d(32, eps=1e-05, momentum=0.1, affine=True, track_running_stats=True)
        (conv3): Conv2d(32, 16, kernel_size=(1, 1), stride=(1, 1), bias=False)
        (bn3): BatchNorm2d(16, eps=1e-05, momentum=0.1, affine=True, track_running_stats=True)
        (activation): ReLU6(inplace)
      )
    )
    (Bottlenecks_1): Sequential(
      (LinearBottleneck1_0): LinearBottleneck(
        (conv1): Conv2d(16, 96, kernel_size=(1, 1), stride=(1, 1), bias=False)
        (bn1): BatchNorm2d(96, eps=1e-05, momentum=0.1, affine=True, track_running_stats=True)
        (conv2): Conv2d(96, 96, kernel_size=(3, 3), stride=(2, 2), padding=(1, 1), groups=96, bias=False)
        (bn2): BatchNorm2d(96, eps=1e-05, momentum=0.1, affine=True, track_running_stats=True)
        (conv3): Conv2d(96, 24, kernel_size=(1, 1), stride=(1, 1), bias=False)
        (bn3): BatchNorm2d(24, eps=1e-05, momentum=0.1, affine=True, track_running_stats=True)
        (activation): ReLU6(inplace)
      )
      (LinearBottleneck1_1): LinearBottleneck(
        (conv1): Conv2d(24, 144, kernel_size=(1, 1), stride=(1, 1), bias=False)
        (bn1): BatchNorm2d(144, eps=1e-05, momentum=0.1, affine=True, track_running_stats=True)
        (conv2): Conv2d(144, 144, kernel_size=(3, 3), stride=(1, 1), padding=(1, 1), groups=144, bias=False)
        (bn2): BatchNorm2d(144, eps=1e-05, momentum=0.1, affine=True, track_running_stats=True)
        (conv3): Conv2d(144, 24, kernel_size=(1, 1), stride=(1, 1), bias=False)
        (bn3): BatchNorm2d(24, eps=1e-05, momentum=0.1, affine=True, track_running_stats=True)
        (activation): ReLU6(inplace)
      )
    )
    (Bottlenecks_2): Sequential(
      (LinearBottleneck2_0): LinearBottleneck(
        (conv1): Conv2d(24, 144, kernel_size=(1, 1), stride=(1, 1), bias=False)
        (bn1): BatchNorm2d(144, eps=1e-05, momentum=0.1, affine=True, track_running_stats=True)
        (conv2): Conv2d(144, 144, kernel_size=(3, 3), stride=(2, 2), padding=(1, 1), groups=144, bias=False)
        (bn2): BatchNorm2d(144, eps=1e-05, momentum=0.1, affine=True, track_running_stats=True)
        (conv3): Conv2d(144, 32, kernel_size=(1, 1), stride=(1, 1), bias=False)
        (bn3): BatchNorm2d(32, eps=1e-05, momentum=0.1, affine=True, track_running_stats=True)
        (activation): ReLU6(inplace)
      )
      (LinearBottleneck2_1): LinearBottleneck(
        (conv1): Conv2d(32, 192, kernel_size=(1, 1), stride=(1, 1), bias=False)
        (bn1): BatchNorm2d(192, eps=1e-05, momentum=0.1, affine=True, track_running_stats=True)
        (conv2): Conv2d(192, 192, kernel_size=(3, 3), stride=(1, 1), padding=(1, 1), groups=192, bias=False)
        (bn2): BatchNorm2d(192, eps=1e-05, momentum=0.1, affine=True, track_running_stats=True)
        (conv3): Conv2d(192, 32, kernel_size=(1, 1), stride=(1, 1), bias=False)
        (bn3): BatchNorm2d(32, eps=1e-05, momentum=0.1, affine=True, track_running_stats=True)
        (activation): ReLU6(inplace)
      )
      (LinearBottleneck2_2): LinearBottleneck(
        (conv1): Conv2d(32, 192, kernel_size=(1, 1), stride=(1, 1), bias=False)
        (bn1): BatchNorm2d(192, eps=1e-05, momentum=0.1, affine=True, track_running_stats=True)
        (conv2): Conv2d(192, 192, kernel_size=(3, 3), stride=(1, 1), padding=(1, 1), groups=192, bias=False)
        (bn2): BatchNorm2d(192, eps=1e-05, momentum=0.1, affine=True, track_running_stats=True)
        (conv3): Conv2d(192, 32, kernel_size=(1, 1), stride=(1, 1), bias=False)
        (bn3): BatchNorm2d(32, eps=1e-05, momentum=0.1, affine=True, track_running_stats=True)
        (activation): ReLU6(inplace)
      )
    )
    (compressor): CompressionLayer()
    (Bottlenecks_3): Sequential(
      (LinearBottleneck3_0): LinearBottleneck(
        (conv1): Conv2d(32, 192, kernel_size=(1, 1), stride=(1, 1), bias=False)
        (bn1): BatchNorm2d(192, eps=1e-05, momentum=0.1, affine=True, track_running_stats=True)
        (conv2): Conv2d(192, 192, kernel_size=(3, 3), stride=(2, 2), padding=(1, 1), groups=192, bias=False)
        (bn2): BatchNorm2d(192, eps=1e-05, momentum=0.1, affine=True, track_running_stats=True)
        (conv3): Conv2d(192, 64, kernel_size=(1, 1), stride=(1, 1), bias=False)
        (bn3): BatchNorm2d(64, eps=1e-05, momentum=0.1, affine=True, track_running_stats=True)
        (activation): ReLU6(inplace)
      )
      (LinearBottleneck3_1): LinearBottleneck(
        (conv1): Conv2d(64, 384, kernel_size=(1, 1), stride=(1, 1), bias=False)
        (bn1): BatchNorm2d(384, eps=1e-05, momentum=0.1, affine=True, track_running_stats=True)
        (conv2): Conv2d(384, 384, kernel_size=(3, 3), stride=(1, 1), padding=(1, 1), groups=384, bias=False)
        (bn2): BatchNorm2d(384, eps=1e-05, momentum=0.1, affine=True, track_running_stats=True)
        (conv3): Conv2d(384, 64, kernel_size=(1, 1), stride=(1, 1), bias=False)
        (bn3): BatchNorm2d(64, eps=1e-05, momentum=0.1, affine=True, track_running_stats=True)
        (activation): ReLU6(inplace)
      )
      (LinearBottleneck3_2): LinearBottleneck(
        (conv1): Conv2d(64, 384, kernel_size=(1, 1), stride=(1, 1), bias=False)
        (bn1): BatchNorm2d(384, eps=1e-05, momentum=0.1, affine=True, track_running_stats=True)
        (conv2): Conv2d(384, 384, kernel_size=(3, 3), stride=(1, 1), padding=(1, 1), groups=384, bias=False)
        (bn2): BatchNorm2d(384, eps=1e-05, momentum=0.1, affine=True, track_running_stats=True)
        (conv3): Conv2d(384, 64, kernel_size=(1, 1), stride=(1, 1), bias=False)
        (bn3): BatchNorm2d(64, eps=1e-05, momentum=0.1, affine=True, track_running_stats=True)
        (activation): ReLU6(inplace)
      )
      (LinearBottleneck3_3): LinearBottleneck(
        (conv1): Conv2d(64, 384, kernel_size=(1, 1), stride=(1, 1), bias=False)
        (bn1): BatchNorm2d(384, eps=1e-05, momentum=0.1, affine=True, track_running_stats=True)
        (conv2): Conv2d(384, 384, kernel_size=(3, 3), stride=(1, 1), padding=(1, 1), groups=384, bias=False)
        (bn2): BatchNorm2d(384, eps=1e-05, momentum=0.1, affine=True, track_running_stats=True)
        (conv3): Conv2d(384, 64, kernel_size=(1, 1), stride=(1, 1), bias=False)
        (bn3): BatchNorm2d(64, eps=1e-05, momentum=0.1, affine=True, track_running_stats=True)
        (activation): ReLU6(inplace)
      )
    )
    (Bottlenecks_4): Sequential(
      (LinearBottleneck4_0): LinearBottleneck(
        (conv1): Conv2d(64, 384, kernel_size=(1, 1), stride=(1, 1), bias=False)
        (bn1): BatchNorm2d(384, eps=1e-05, momentum=0.1, affine=True, track_running_stats=True)
        (conv2): Conv2d(384, 384, kernel_size=(3, 3), stride=(1, 1), padding=(1, 1), groups=384, bias=False)
        (bn2): BatchNorm2d(384, eps=1e-05, momentum=0.1, affine=True, track_running_stats=True)
        (conv3): Conv2d(384, 96, kernel_size=(1, 1), stride=(1, 1), bias=False)
        (bn3): BatchNorm2d(96, eps=1e-05, momentum=0.1, affine=True, track_running_stats=True)
        (activation): ReLU6(inplace)
      )
      (LinearBottleneck4_1): LinearBottleneck(
        (conv1): Conv2d(96, 576, kernel_size=(1, 1), stride=(1, 1), bias=False)
        (bn1): BatchNorm2d(576, eps=1e-05, momentum=0.1, affine=True, track_running_stats=True)
        (conv2): Conv2d(576, 576, kernel_size=(3, 3), stride=(1, 1), padding=(1, 1), groups=576, bias=False)
        (bn2): BatchNorm2d(576, eps=1e-05, momentum=0.1, affine=True, track_running_stats=True)
        (conv3): Conv2d(576, 96, kernel_size=(1, 1), stride=(1, 1), bias=False)
        (bn3): BatchNorm2d(96, eps=1e-05, momentum=0.1, affine=True, track_running_stats=True)
        (activation): ReLU6(inplace)
      )
      (LinearBottleneck4_2): LinearBottleneck(
        (conv1): Conv2d(96, 576, kernel_size=(1, 1), stride=(1, 1), bias=False)
        (bn1): BatchNorm2d(576, eps=1e-05, momentum=0.1, affine=True, track_running_stats=True)
        (conv2): Conv2d(576, 576, kernel_size=(3, 3), stride=(1, 1), padding=(1, 1), groups=576, bias=False)
        (bn2): BatchNorm2d(576, eps=1e-05, momentum=0.1, affine=True, track_running_stats=True)
        (conv3): Conv2d(576, 96, kernel_size=(1, 1), stride=(1, 1), bias=False)
        (bn3): BatchNorm2d(96, eps=1e-05, momentum=0.1, affine=True, track_running_stats=True)
        (activation): ReLU6(inplace)
      )
    )
    (Bottlenecks_5): Sequential(
      (LinearBottleneck5_0): LinearBottleneck(
        (conv1): Conv2d(96, 576, kernel_size=(1, 1), stride=(1, 1), bias=False)
        (bn1): BatchNorm2d(576, eps=1e-05, momentum=0.1, affine=True, track_running_stats=True)
        (conv2): Conv2d(576, 576, kernel_size=(3, 3), stride=(2, 2), padding=(1, 1), groups=576, bias=False)
        (bn2): BatchNorm2d(576, eps=1e-05, momentum=0.1, affine=True, track_running_stats=True)
        (conv3): Conv2d(576, 160, kernel_size=(1, 1), stride=(1, 1), bias=False)
        (bn3): BatchNorm2d(160, eps=1e-05, momentum=0.1, affine=True, track_running_stats=True)
        (activation): ReLU6(inplace)
      )
      (LinearBottleneck5_1): LinearBottleneck(
        (conv1): Conv2d(160, 960, kernel_size=(1, 1), stride=(1, 1), bias=False)
        (bn1): BatchNorm2d(960, eps=1e-05, momentum=0.1, affine=True, track_running_stats=True)
        (conv2): Conv2d(960, 960, kernel_size=(3, 3), stride=(1, 1), padding=(1, 1), groups=960, bias=False)
        (bn2): BatchNorm2d(960, eps=1e-05, momentum=0.1, affine=True, track_running_stats=True)
        (conv3): Conv2d(960, 160, kernel_size=(1, 1), stride=(1, 1), bias=False)
        (bn3): BatchNorm2d(160, eps=1e-05, momentum=0.1, affine=True, track_running_stats=True)
        (activation): ReLU6(inplace)
      )
      (LinearBottleneck5_2): LinearBottleneck(
        (conv1): Conv2d(160, 960, kernel_size=(1, 1), stride=(1, 1), bias=False)
        (bn1): BatchNorm2d(960, eps=1e-05, momentum=0.1, affine=True, track_running_stats=True)
        (conv2): Conv2d(960, 960, kernel_size=(3, 3), stride=(1, 1), padding=(1, 1), groups=960, bias=False)
        (bn2): BatchNorm2d(960, eps=1e-05, momentum=0.1, affine=True, track_running_stats=True)
        (conv3): Conv2d(960, 160, kernel_size=(1, 1), stride=(1, 1), bias=False)
        (bn3): BatchNorm2d(160, eps=1e-05, momentum=0.1, affine=True, track_running_stats=True)
        (activation): ReLU6(inplace)
      )
    )
    (Bottlenecks_6): Sequential(
      (LinearBottleneck6_0): LinearBottleneck(
        (conv1): Conv2d(160, 960, kernel_size=(1, 1), stride=(1, 1), bias=False)
        (bn1): BatchNorm2d(960, eps=1e-05, momentum=0.1, affine=True, track_running_stats=True)
        (conv2): Conv2d(960, 960, kernel_size=(3, 3), stride=(1, 1), padding=(1, 1), groups=960, bias=False)
        (bn2): BatchNorm2d(960, eps=1e-05, momentum=0.1, affine=True, track_running_stats=True)
        (conv3): Conv2d(960, 320, kernel_size=(1, 1), stride=(1, 1), bias=False)
        (bn3): BatchNorm2d(320, eps=1e-05, momentum=0.1, affine=True, track_running_stats=True)
        (activation): ReLU6(inplace)
      )
    )
  )
  (conv_last): Conv2d(320, 1280, kernel_size=(1, 1), stride=(1, 1), bias=False)
  (bn_last): BatchNorm2d(1280, eps=1e-05, momentum=0.1, affine=True, track_running_stats=True)
  (avgpool): AvgPool2d(kernel_size=7, stride=7, padding=0)
  (dropout): Dropout(p=0.2, inplace)
  (fc): Linear(in_features=1280, out_features=1000, bias=True)
)  0%|          | 0/782 [00:00<?, ?it/s]
number of parameters: 3505960
FLOPs: 312339328.0
=> loading checkpoint 'results/mobilenet_v2_1.0_224/model_best.pth.tar'
=> loaded checkpoint 'results/mobilenet_v2_1.0_224/model_best.pth.tar' (epoch 401)
  0%|          | 1/782 [00:00<11:55,  1.09it/s]  0%|          | 2/782 [00:01<06:59,  1.86it/s]  0%|    
…
